…
ode","metadata":{"id":"6AMoKf9oJv_g","outputId":"a36f80b0-51e9-4e02-d8ea-7b35a4c5a9c9"},"source":["model.summary()"],"execution_count":null,"outputs":[{"name":"stdout","output_type":"stream","text":["Model: \"model\"\n","_________________________________________________________________\n","Layer (type)                 Output Shape              Param #   \n","=================================================================\n","input_1 (InputLayer)         [(None, 28, 28, 1)]       0         \n","_________________________________________________________________\n","conv2d (Conv2D)              (None, 26, 26, 32)        320       \n","_________________________________________________________________\n","max_pooling2d (MaxPooling2D) (None, 13, 13, 32)        0         \n","_________________________________________________________________\n","conv2d_1 (Conv2D)            (None, 11, 11, 64)        18496     \n","_________________________________________________________________\n","max_pooling2d_1 (MaxPooling2 (None, 5, 5, 64)          0         \n","_________________________________________________________________\n","conv2d_2 (Conv2D)            (None, 3, 3, 128)         73856     \n","_________________________________________________________________\n","flatten (Flatten)            (None, 1152)              0         \n","_________________________________________________________________\n","dense (Dense)                (None, 10)                11530     \n","=================================================================\n","Total params: 104,202\n","Trainable params: 104,202\n","Non-trainable params: 0\n","_________________________________________________________________\n"]}]},{"cell_type":"markdown","metadata":{"id":"_Da4_IayPXwR"},"source":["위의 모델을 정리하자면 사진의 모양은 똑같지만 크기는 작아지면서 담고 있는 정보가 늘어나고 있다고 생각하면 된다. 즉, 픽셀이 담고 있는 정보를 늘리고 크기를 줄임으로써 
…
":{"id":"PAkiuQgCJv_p","outputId":"b2be7c1e-6e70-443a-8e51-d6f1b89cef6e"},"source":["model_no_max_pool.summary()"],"execution_count":null,"outputs":[{"name":"stdout","output_type":"stream","text":["Model: \"model_1\"\n","_________________________________________________________________\n","Layer (type)                 Output Shape              Param #   \n","=================================================================\n","input_2 (InputLayer)         [(None, 28, 28, 1)]       0         \n","_________________________________________________________________\n","conv2d_3 (Conv2D)            (None, 26, 26, 32)        320       \n","_________________________________________________________________\n","conv2d_4 (Conv2D)            (None, 24, 24, 64)        18496     \n","_________________________________________________________________\n","conv2d_5 (Conv2D)            (None, 22, 22, 128)       73856     \n","_________________________________________________________________\n","flatten_1 (Flatten)          (None, 61952)             0         \n","_________________________________________________________________\n","dense_1 (Dense)              (None, 10)                619530    \n","=================================================================\n","Total params: 712,202\n","Trainable params: 712,202\n","Non-trainable params: 0\n","_________________________________________________________________\n"]}]},{"cell_type":"markdown","metadata":{"id":"JIS2k_zOJv_p"},"source":["### 적절한 `kernel_size`, `stride`, `pool_size`"]},{"cell_type":"markdown","metadata":{"id":"j4KJKZ
…
default-user=s64","userId":"13391733907528682049"},"user_tz":-540},"id":"FGaVH1F_ysIE","outputId":"965f6c67-2eb3-4136-beb4-015c85a27fc4"},"outputs":[{"name":"stdout","output_type":"stream","text":["Model: \"model_2\"\n","_________________________________________________________________\n","Layer (type)                 Output Shape              Param #   \n","=================================================================\n","input_3 (InputLayer)         [(None, 180, 180, 3)]     0         \n","_________________________________________________________________\n","rescaling (Rescaling)        (None, 180, 180, 3)       0         \n","_________________________________________________________________\n","conv2d_6 (Conv2D)            (None, 178, 178, 32)      896       \n","_________________________________________________________________\n","max_pooling2d_2 (MaxPooling2 (None, 89, 89, 32)        0         \n","_________________________________________________________________\n","conv2d_7 (Conv2D)            (None, 87, 87, 64)        18496     \n","_________________________________________________________________\n","max_pooling2d_3 (MaxPooling2 (None, 43, 43, 64)        0         \n","_________________________________________________________________\n","conv2d_8 (Conv2D)            (None, 41, 41, 128)       73856     \n","_________________________________________________________________\n","max_pooling2d_4 (MaxPooling2 (None, 20, 20, 128)       0         \n","_________________________________________________________________\n","conv2d_9 (Conv2D)            (None, 18, 18, 256)       295168    \n","_________________________________________________________________\n","max_pooling2d_5 (MaxPooling2 (None, 9, 9, 256)         0         \n","_________________________________________________________________\n","conv2d_10 (Conv2D)           (None, 7, 7, 256)         590080    \n","_________________________________________________________________\n","flatten_2 (Flatten)          (None, 12544)             0         \n","_________________________________________________________________\n","dense_2 (Dense)              (None, 1)                 12545     \n","=================================================================\n","Total params: 991,041\n","Trainable params: 991,041\n","Non-trainable params: 0\n","_________________________________________________________________\n"]}],"source":["model.summary()"]},{"cell_type":"markdown","metadata":{"id":"oI72pKLbysIE"},"source":["강아지와 고양이의 비율이 동일하기에 정확도를 평가지표로 사용한다."]},{"cell_type":"code","execu
…
userId":"13391733907528682049"}},"outputId":"2f332320-edf3-4de1-b828-aa943a15f9d7"},"source":["conv_base.summary()"],"execution_count":null,"outputs":[{"output_type":"stream","name":"stdout","text":["Model: \"vgg16\"\n","_________________________________________________________________\n","Layer (type)                 Output Shape              Param #   \n","=================================================================\n","input_5 (InputLayer)         [(None, 180, 180, 3)]     0         \n","_________________________________________________________________\n","block1_conv1 (Conv2D)        (None, 180, 180, 64)      1792      \n","_________________________________________________________________\n","block1_conv2 (Conv2D)        (None, 180, 180, 64)      36928     \n","_________________________________________________________________\n","block1_pool (MaxPooling2D)   (None, 90, 90, 64)        0         \n","_________________________________________________________________\n","block2_conv1 (Conv2D)        (None, 90, 90, 128)       73856     \n","_________________________________________________________________\n","block2_conv2 (Conv2D)        (None, 90, 90, 128)       147584    \n","_________________________________________________________________\n","block2_pool (MaxPooling2D)   (None, 45, 45, 128)       0         \n","_________________________________________________________________\n","block3_conv1 (Conv2D)        (None, 45, 45, 256)       295168    \n","_________________________________________________________________\n","block3_conv2 (Conv2D)        (None, 45, 45, 256)       590080    \n","_________________________________________________________________\n","block3_conv3 (Conv2D)        (None, 45, 45, 256)       590080    \n","_________________________________________________________________\n","block3_pool (MaxPooling2D)   (None, 22, 22, 256)       0         \n","_________________________________________________________________\n","block4_conv1 (Conv2D)        (None, 22, 22, 512)       1180160   \n","_________________________________________________________________\n","block4_conv2 (Conv2D)        (None, 22, 22, 512)       2359808   \n","_________________________________________________________________\n","block4_conv3 (Conv2D)        (None, 22, 22, 512)       2359808   \n","_________________________________________________________________\n","block4_pool (MaxPooling2D)   (None, 11, 11, 512)       0         \n","_________________________________________________________________\n","block5_conv1 (Conv2D)        (None, 11, 11, 512)       2359808   \n","_________________________________________________________________\n","block5_conv2 (Conv2D)        (None, 11, 11, 512)       2359808   \n","_________________________________________________________________\n","block5_conv3 (Conv2D)        (None, 11, 11, 512)       2359808   \n","_________________________________________________________________\n","block5_pool (MaxPooling2D)   (None, 5, 5, 512)         0         \n","=================================================================\n","Total params: 14,714,688\n","Trainable params: 14,714,688\n","Non-trainable params: 0\n","_________________________________________________________________\n"]}]},{"cell_type":"markdown","metadata":{"id":"PDBVUgc5c2io"},"source":["페딩을 추가했기에 conv2를 사용해도 모양이 바뀌지 않았다"]},{"cell_type":"markdown","metadata":{"id":"h2sd8I
…
