…
host:8080/"},"id":"SldlejUmysIV","outputId":"e1ec8312-5ca2-4659-9100-6946eea01ebf"},"source":["conv_base.summary()"],"execution_count":null,"outputs":[{"name":"stdout","output_type":"stream","text":["Model: \"vgg16\"\n","_________________________________________________________________\n","Layer (type)                 Output Shape              Param #   \n","=================================================================\n","input_1 (InputLayer)         [(None, 180, 180, 3)]     0         \n","_________________________________________________________________\n","block1_conv1 (Conv2D)        (None, 180, 180, 64)      1792      \n","_________________________________________________________________\n","block1_conv2 (Conv2D)        (None, 180, 180, 64)      36928     \n","_________________________________________________________________\n","block1_pool (MaxPooling2D)   (None, 90, 90, 64)        0         \n","_________________________________________________________________\n","block2_conv1 (Conv2D)        (None, 90, 90, 128)       73856     \n","_________________________________________________________________\n","block2_conv2 (Conv2D)        (None, 90, 90, 128)       147584    \n","_________________________________________________________________\n","block2_pool (MaxPooling2D)   (None, 45, 45, 128)       0         \n","_________________________________________________________________\n","block3_conv1 (Conv2D)        (None, 45, 45, 256)       295168    \n","_________________________________________________________________\n","block3_conv2 (Conv2D)        (None, 45, 45, 256)       590080    \n","_________________________________________________________________\n","block3_conv3 (Conv2D)        (None, 45, 45, 256)       590080    \n","_________________________________________________________________\n","block3_pool (MaxPooling2D)   (None, 22, 22, 256)       0         \n","_________________________________________________________________\n","block4_conv1 (Conv2D)        (None, 22, 22, 512)       1180160   \n","_________________________________________________________________\n","block4_conv2 (Conv2D)        (None, 22, 22, 512)       2359808   \n","_________________________________________________________________\n","block4_conv3 (Conv2D)        (None, 22, 22, 512)       2359808   \n","_________________________________________________________________\n","block4_pool (MaxPooling2D)   (None, 11, 11, 512)       0         \n","_________________________________________________________________\n","block5_conv1 (Conv2D)        (None, 11, 11, 512)       2359808   \n","_________________________________________________________________\n","block5_conv2 (Conv2D)        (None, 11, 11, 512)       2359808   \n","_________________________________________________________________\n","block5_conv3 (Conv2D)        (None, 11, 11, 512)       2359808   \n","_________________________________________________________________\n","block5_pool (MaxPooling2D)   (None, 5, 5, 512)         0         \n","=================================================================\n","Total params: 14,714,688\n","Trainable params: 14,714,688\n","Non-trainable params: 0\n","_________________________________________________________________\n"]}]},{"cell_type":"markdown","metadata":{"id":"7C-i9xhHhNpH"},"source":["## 문제 1\n","\n","`conv_base.summary`의 `Output Shape`에 사용된 각 숫자가\n","유추되는 되는 과정을 차례대로 
…
