…
p":1636965978645,"user_tz":-540,"elapsed":9,"user":{"displayName":"유정식","photoUrl":"https://lh3.googleusercontent.com/a/default-user=s64","userId":"13391733907528682049"}},"outputId":"c9811731-aff8-4cc5-f88a-779de18b539b"},"source":["model.summary()"],"execution_count":null,"outputs":[{"output_type":"stream","name":"stdout","text":["Model: \"sequential\"\n","_________________________________________________________________\n"," Layer (type)                Output Shape              Param #   \n","=================================================================\n"," conv2d (Conv2D)             (None, 26, 26, 32)        320       \n","                                                                 \n"," max_pooling2d (MaxPooling2D  (None, 13, 13, 32)       0         \n"," )                                                               \n","                                                                 \n"," conv2d_1 (Conv2D)           (None, 11, 11, 64)        18496     \n","                                                                 \n"," max_pooling2d_1 (MaxPooling  (None, 5, 5, 64)         0         \n"," 2D)                                                             \n","                                                                 \n"," conv2d_2 (Conv2D)           (None, 3, 3, 128)         73856     \n","                                                                 \n"," flatten (Flatten)           (None, 1152)              0         \n","                                                                 \n"," dense (Dense)               (None, 64)                73792     \n","                                                                 \n"," dense_1 (Dense)             (None, 10)                650       \n","                                                                 \n","=================================================================\n","Total params: 167,114\n","Trainable params: 167,114\n","Non-trainable params: 0\n","_________________________________________________________________\n"]}]},{"cell_type":"code","metadata":{"colab":{"base_uri":"https://localhost:8080/"},"id":"CzS0D0
…
